…
04/25/2018 11:59:04 [Epoch 999/1000 done in 0.25 s. Approximatly 0.25s. remaining.]
04/25/2018 11:59:04 [Producing accuracy and loss figures.]
04/25/2018 11:59:05 [Finished in 285.93s.]
04/25/2018 11:59:05 ----------------------------------------------------------------------------------------------------
04/25/2018 11:59:05 [Saving Model at location /home/andre/Documents/DL_p1/models/stored_models/Linear/savedModel_E1000.pt.]
04/25/2018 11:59:05 ----------------------------------------------------------------------------------------------------
04/25/2018 11:59:05 Starting new test epoch.
04/25/2018 12:00:39 (Sequential(
  (first): Linear(in_features=1400, out_features=30, bias=True)
  (first_a): ReLU()
  (hidden_868): Linear(in_features=30, out_features=30, bias=True)
  (act_868): Softmax()
  (output_layer): Linear(in_features=30, out_features=2, bias=True)
  (output_activation): Softmax()
), 59)
04/25/2018 12:00:39 92.91101455688477
04/25/2018 12:00:39 Starting new test epoch.
04/25/2018 12:02:12 (Sequential(
  (first): Linear(in_features=1400, out_features=10, bias=True)
  (first_a): ReLU()
  (hidden_4): Linear(in_features=10, out_features=10, bias=True)
  (act_4): Softmax()
  (output_layer): Linear(in_features=10, out_features=2, bias=True)
  (output_activation): Softmax()
), 58)
04/25/2018 12:02:12 91.92421293258667
04/25/2018 12:02:12 Starting new test epoch.
04/25/2018 12:03:48 (Sequential(
  (first): Linear(in_features=1400, out_features=30, bias=True)
  (first_a): Sigmoid()
  (hidden_976): Linear(in_features=30, out_features=30, bias=True)
  (act_976): Softmax()
  (output_layer): Linear(in_features=30, out_features=2, bias=True)
  (output_activation): Softmax()
), 59)
04/25/2018 12:03:48 94.05282306671143
04/25/2018 12:03:48 Starting new test epoch.
04/25/2018 12:05:21 (Sequential(
  (first): Linear(in_features=1400, out_features=10, bias=True)
  (first_a): ReLU()
  (hidden_4): Linear(in_features=10, out_features=10, bias=True)
  (act_4): Softmax()
  (output_layer): Linear(in_features=10, out_features=2, bias=True)
  (output_activation): Softmax()
), 58)
04/25/2018 12:05:21 91.21790289878845
04/25/2018 12:05:21 Starting new test epoch.
04/25/2018 12:06:51 (Sequential(
  (first): Linear(in_features=1400, out_features=20, bias=True)
  (first_a): Tanh()
  (hidden_652): Linear(in_features=20, out_features=20, bias=True)
  (act_652): Softmax()
  (output_layer): Linear(in_features=20, out_features=2, bias=True)
  (output_activation): Softmax()
), 58)
04/25/2018 12:06:51 88.98014569282532
04/25/2018 12:06:51 Starting new test epoch.
04/25/2018 12:08:17 (Sequential(
  (first): Linear(in_features=1400, out_features=10, bias=True)
  (first_a): Sigmoid()
  (hidden_112): Linear(in_features=10, out_features=10, bias=True)
  (act_112): Softmax()
  (output_layer): Linear(in_features=10, out_features=2, bias=True)
  (output_activation): Softmax()
), 56)
04/25/2018 12:08:17 84.5780463218689
04/25/2018 12:08:17 Starting new test epoch.
04/25/2018 12:09:47 (Sequential(
  (first): Linear(in_features=1400, out_features=30, bias=True)
  (first_a): ReLU()
  (hidden_868): Linear(in_features=30, out_features=30, bias=True)
  (act_868): Softmax()
  (output_layer): Linear(in_features=30, out_features=2, bias=True)
  (output_activation): Softmax()
), 57)
04/25/2018 12:09:47 87.99120378494263
04/25/2018 12:09:47 Starting new test epoch.
04/25/2018 12:11:15 (Sequential(
  (first): Linear(in_features=1400, out_features=30, bias=True)
  (first_a): Sigmoid()
  (hidden_976): Linear(in_features=30, out_features=30, bias=True)
  (act_976): Softmax()
  (output_layer): Linear(in_features=30, out_features=2, bias=True)
  (output_activation): Softmax()
), 57)
04/25/2018 12:11:15 87.13101959228516
04/25/2018 12:11:15 Starting new test epoch.
04/25/2018 12:12:43 (Sequential(
  (first): Linear(in_features=1400, out_features=20, bias=True)
  (first_a): ReLU()
  (hidden_436): Linear(in_features=20, out_features=20, bias=True)
  (act_436): Softmax()
  (output_layer): Linear(in_features=20, out_features=2, bias=True)
  (output_activation): Softmax()
), 62)
04/25/2018 12:12:43 86.02624273300171
04/25/2018 12:12:43 Starting new test epoch.
04/25/2018 12:14:14 (Sequential(
  (first): Linear(in_features=1400, out_features=30, bias=True)
  (first_a): ReLU()
  (hidden_868): Linear(in_features=30, out_features=30, bias=True)
  (act_868): Softmax()
  (output_layer): Linear(in_features=30, out_features=2, bias=True)
  (output_activation): Softmax()
), 60)
04/25/2018 12:14:14 90.25609230995178
04/25/2018 12:55:43 [Program starts.]
04/25/2018 12:55:43 [Arg used:]{'fig_dir': '/home/andre/Documents/DL_p1/figs/', 'momentum': '0.9', 'lr': 0.005, 'weight_decay': 0.0, 'dropout': 0.0, 'normalize_data': True, 'model': 'Linear', 'optimizer': 'Adagrad', 'epoch_number': 1000, 'save_dir': '/home/andre/Documents/DL_p1/models/stored_models/', 'exp_name': 'normalized_only', 'criterion': 'CrossEntropy', 'log_root': '/home/andre/Documents/DL_p1/logs/', 'remove_DC_level': True}
…
